project2/mnist/part2-mnist/mnist_model_fully_connected.pt (torch, 906672 bytes, 8 tensors)

weight f4 [32, 1, 3, 3]
00000000: fc83 913e 0803 3cbd 47c0 5ebf cd5d 3d3e
00000010: baf8 733f 7e76 633e 9710 2cbf ad12 9f3e
00000020: c671 ed3c 2fe6 f6be b63b a43e 0830 2d3e
00000030: da90 a4be 5fdd 0c3e 277d a03e 984c c8be
00000040: 89cb 873e 7ed0 d23e e959 49be 319c 91bd
00000050: fd2e 0abe 0b28 cebe 57cd 9dbe 1a05 11bc
00000060: a225 9bbe 2849 903e 2048 d13e bd74 3fbe
00000070: 9489 b5be 9d97 cb3c ce48 973c 61e5 0a3e
00000080: 1acd f93d 8c30 9cbe 28a8 4b3c 5da8 bb3e
00000090: f761 5f3e de6a ea3e 02ba a1bd 4fd2 9b3c
000000a0: 19d6 d3bd 482f 1bbf d7f3 c83e 4097 aebd
000000b0: 0bf9 dc3c f41d da3c bdec f0be 49ba 64be
000000c0: 374b 933e 4935 1abf 5c70 00bf ca6b 3d3f
000000d0: 65e8 143f a463 9a3e 65ce 43be 58dd 2ebf
000000e0: acf6 e2be 1e04 d3be bc88 203d 9b68 1f3f
000000f0: da76 1f3f 0753 0a3f 487b 7ebe 8450 f93d
00000100: b83f c7be a8e3 43be dc07 b03e 7275 3dbe
00000110: 7f77 da3d 72f0 933e 7042 6cbd 5644 c73d
00000120: 2a49 d43e cef8 bcbe ea61 3fbf 8015 873e
00000130: a2b9 ad3e 355b 893c ef7a 63bb 2f75 a83e
00000140: d86d 613e a140 67be 49d1 103e 18b7 93be
00000150: 9802 493e 2d60 853d e419 1abf 54ac fb3e
00000160: 2d50 f53e 9562 06bf e342 82bd 6055 063e
00000170: 6054 75bd 8806 6abd 4d58 65be 10f1 653e
00000180: 14c1 a0be 63aa 853e 013c 53bd ec96 dfbb
00000190: 5fc8 d3be 1365 87be 51f3 06bf ac75 dfbd
000001a0: 6c9c b2be 518a bfbe ad48 1dbe 6243 20bd
000001b0: 7181 e5bd f0b9 59be a268 c4bd 51cc 59be
000001c0: 807f b9be af17 9bbe 3215 a13e 5836 b83d
000001d0: cf4e 9cbe 6d8f 843e bcc7 bcbd abf3 04bf
000001e0: 2b53 27be ac1c 1cbe 18b3 91be 72a1 e03e
000001f0: d1ec 1a3e 38a4 043f 6862 b0be f85d 7fbe
00000200: 8c11 003e ccfe 033f c380 0a3f 4d63 eb3e
00000210: 1eb0 6abe f478 a8be e596 0dbf d172 e9be
00000220: 37e7 1fbf 54b4 e3be 7d45 12be fe68 283e
00000230: 29c9 673e 8b5f 24bd 37f5 ce3e 5bca 643e
00000240: 684b 0ebf 3f92 423e ae92 f63e 0f9e 38bf
00000250: 0cbf 7f3e ef84 da3e fc2b f7be 499f 2a3e
00000260: 73e4 8a3d d391 37bf 0be1 f13e 6b3a 0c3f
00000270: e889 50bd e21f 803f 16cd d0be 6c52 153f
00000280: 4623 ca3e c932 5dbf 5b80 593f da82 ed3e
00000290: 7d4f 103f 38f9 4abe 7227 b23e 1541 aabd
000002a0: fb9b 4ebf 31da 86bf 621a 77be ce8d fb3d
000002b0: 8b4b ac3c 5425 07bc 7c04 5fbe f9d3 1cbe
000002c0: 8a5f a3be c2b0 89be 3ea5 85be 4b45 1f3e
000002d0: cc82 273f e7b2 293f 141d a3be 3770 d63e
000002e0: b458 05bf efae 24bf 9a65 36be bef2 ccbe
000002f0: 0722 d7bc 292e 933e e14b 063d 6f67 d2be
00000300: 727b da3e f3c3 87be 56d6 74be 60d4 1c3e
00000310: a088 993d 91fa 5dbe 7c1b 1b3d 3119 8fbc
00000320: b7a1 3bbe e263 4bbe 974a 623e a82d 55be
00000330: 0116 17be f6b0 c73d 7038 b1bc 0111 9abe
00000340: befd a03e 4c38 93bd 09b4 d5be 29e1 8d3e
00000350: 1dd7 2f3e b795 f7be dab2 903e 89c5 543d
00000360: c490 30be 9174 b73e 016a 263e d592 8fbd
00000370: f0bb e23c 225e 003f 59fd 12bf a1f4 d1be
00000380: 9e86 5cbd 7255 41be e2d7 373e 7e4f aabe
00000390: 18dc 823e d792 b83e 3ba1 b8bd 8ee8 01be
000003a0: b86c 5d3d 6cdb cc3d fc66 8bbe ec6a 17be
000003b0: d0ae 68be 195a cc3e 38bb 7dbe 5ba8 dcbe
000003c0: 6c2d 74bd a581 cf3e c5c6 133f e953 bc3e
000003d0: fce3 6e3d 553f 73be 7e9c bbbb 293d 1f3e
000003e0: 2110 58be cb76 b1be b80b bbbd 6bb6 78be
000003f0: f14d f5be f92a 0dbf 4f85 993d 156f efbe
0.2842101 -0.04590133 -0.8701214 0.18492813 0.953014 0.2221317 -0.67212814 0.31068936
0.028984915 -0.4822249 0.32076806 0.16912854 -0.32141763 0.13756321 0.31345484 -0.39120936
0.26522473 0.41174692 -0.19663204 -0.07109869 -0.13494487 -0.40264925 -0.30820724 -0.008851314
-0.3030215 0.28180814 0.4087534 -0.18696876 -0.35456526 0.024852568 0.018467333 0.13564064
0.12197323 -0.30505788 0.012430228 0.36651888 0.21814714 0.45784658 -0.07896806 0.019021181
-0.1034357 -0.6061902 0.39248535 -0.085249424 0.026974222 0.02662561 -0.47055617 -0.22336687
0.28768322 -0.60237557 -0.50171447 0.739926 0.58167106 0.30154145 -0.19121702 -0.68306494
-0.4432882 -0.4121408 0.0391929 0.6226899 0.6229073 0.5403294 -0.24851716 0.1217356
-0.389158 -0.19129813 0.34380996 -0.18501833 0.10667323 0.28894383 -0.057680547 0.09729831
0.4146207 -0.36908573 -0.7475878 0.2638359 0.3393069 0.016767124 -0.0034710725 0.32901904
0.22014558 -0.22583248 0.14142336 -0.28850627 0.19629896 0.06512485 -0.60195756 0.49154913
0.47912732 -0.52494174 -0.06360414 0.13118505 -0.05989492 -0.057135135 -0.22396965 0.2245524
-0.31397307 0.26106557 -0.051570896 -0.006823411 -0.4136381 -0.264443 -0.5271502 -0.10911116
-0.34884965 -0.37410215 -0.15359755 -0.03912676 -0.112063296 -0.21262336 -0.095902696 -0.21269347
-0.36230087 -0.30291507 0.31461483 0.0899474 -0.30528876 0.25890675 -0.09217784 -0.5193431
-0.1634032 -0.15245312 -0.2845695 0.43873173 0.15129401 0.5181308 -0.34450078 -0.2493819
0.12506694 0.51560664 0.54102725 0.45974198 -0.22918746 -0.3290478 -0.5530837 -0.4559541
-0.6246218 -0.44473517 -0.1428432 0.16446301 0.2263533 -0.04013018 0.4042146 0.22342817
-0.5558381 0.19001101 0.48158783 -0.7211618 0.24975222 0.42679545 -0.48275745 0.16662325
0.067818545 -0.71706885 0.47242007 0.5477664 -0.050912768 1.000973 -0.40781468 0.5832889
0.39480036 -0.86405617 0.8496148 0.46388894 0.5637129 -0.19821632 0.3479572 -0.08313195
-0.8070676 -1.0535337 -0.24131158 0.122829065 0.021032115 -0.008248646 -0.21779054 -0.15315236
-0.31908828 -0.26892668 -0.26102632 0.15553777 0.65433955 0.6628861 -0.31858122 0.41882488
-0.52088475 -0.6432943 -0.17812195 -0.40028948 -0.026261343 0.28746155 0.032787208 -0.4109454
0.42672306 -0.26516685 -0.23909888 0.1531539 0.07496762 -0.21677615 0.037868008 -0.017468067
-0.18323408 -0.19862321 0.22098766 -0.20818198 -0.14754488 0.097505495 -0.021633357 -0.30091098
0.3144359 -0.07188472 -0.41738918 0.27710846 0.17171903 -0.4835641 0.28261453 0.051946197
-0.17242724 0.3583112 0.16251375 -0.07010428 0.027677506 0.50143635 -0.5741783 -0.4100695
-0.05383932 -0.18880251 0.17953447 -0.33263773 0.25558543 0.3604953 -0.09015127 -0.12686369
0.05405876 0.10002789 -0.27227008 -0.14786881 -0.22722936 0.3991249 -0.2477845 -0.43097195
-0.05961363 0.40528598 0.57725173 0.36782768 0.05832289 -0.23754628 -0.0057254424 0.15550674
-0.21099903 -0.34660944 -0.091330945 -0.24288337 -0.47911027 -0.55143696 0.0749613 -0.46764436

bias f4 [32]
00000000: f53f 87be 8e1a 4bbe 3609 4a3e 5ca8 fabd
00000010: 240c 4fbe 1c04 23be 1ca0 95bd c3dc 08be
00000020: 5640 9bbe 2c39 82bc 7526 a0be c3b7 f43e
00000030: cc1a 7e3e df8f f9bd f98b aabc af03 d63c
00000040: b3c3 5cbd ea59 29bf 0dbf 9cbd b91a 11be
00000050: 5270 6e3b b4c4 1cbd 9b18 72bd 680c 2e3d
00000060: 35fe 93bd 863b 18be fb1c 8cbc d833 4bbd
00000070: 937f 91be 70ed 75be 3f65 48be 42ed 373d
-0.26415983 -0.19834349 0.19730076 -0.12239143 -0.20219475 -0.15919536 -0.07305929 -0.13365464
-0.30322522 -0.015896402 -0.3127934 0.4779645 0.2481491 -0.12185644 -0.020818697 0.026124803
-0.05389757 -0.6615282 -0.076536275 -0.1417035 0.0036382866 -0.03827353 -0.059105497 0.0424923
-0.072262205 -0.14866456 -0.017103663 -0.04960999 -0.28417644 -0.24016356 -0.19569872 0.044904

weight f4 [64, 32, 3, 3]
00000000: c908 97bd d449 883d 8dbe 823c 7a28 bf3b
00000010: f661 c5bd 3448 9fbd 2299 f53b f66c 0c3e
00000020: 6493 103c 4716 afbd 0363 b23b deac 213e
00000030: dbed 9abd 63d6 20bd 9157 c8bc c873 ad3c
00000040: 43fc 253d 80b0 bdbc afb8 843c 4896 a1bd
00000050: 10ce a1bd d6f4 e2ba cff0 30bd 4a0c ca3b
00000060: ec21 cdbd d64d 20bd cbd1 36bd 745b 083d
00000070: 4f37 c1bc 98c3 d23b 9a9b 6a3d b614 8ebd
00000080: adf6 343c 3389 5cbc 9771 cbbc fbbc 733d
00000090: 48a4 37bd 77dd 85bd 04eb 063b 53e2 61bd
000000a0: e332 c43c e44a 56bd bc0b dabc 6dea febc
000000b0: 1313 663b 6580 983c e1d7 cfbd 241d cebd
000000c0: 5a73 f53d 5dd9 5f3e 285b a43d 58cd f43b
000000d0: ab1b 563c 90dc 2f3d 1001 4cbd abdb 62bd
000000e0: f5ce 44bd 7a4b 183d 4e53 81bb c688 0fbd
000000f0: 7a57 893c 6b03 703d db06 f63c a19b 90bd
00000100: 6966 c3bb 18c8 943c 0b44 81bc 9f78 8c3d
00000110: 9984 2e3d 6f34 433d f274 a13c fbfe fd3c
00000120: 8ecc 23bd a977 22bd eaf8 b0bc 4add 71bd
00000130: eacb 853c a638 8cba 073c ec3c 367a 833d
00000140: c3f6 5b3b dc06 97bd 5be9 83bd 0589 eabc
00000150: 5c85 343d 9fcc 403d 34c7 87bd 996c 0fbc
00000160: b2d1 933c 1b0d 983d 7f3b 963c 9a4f 243d
00000170: d8e2 1abd d559 fabb 512a 28bd 31e1 69bd
00000180: abad 6cbb 1e6c 16bd 9373 b83c 9c61 8d3c
00000190: c960 cebd d983 d5bd 8b3c 8bbd 605a 5cbc
000001a0: 1759 f4bd b9c5 b6bc 40a3 ccbd 10ae c6bd
000001b0: 040e 4e3d 66fc 56bd dc50 ddbd 4939 47bd
000001c0: 8bdd 0fbd 3d99 46bc 7016 cdbc ff23 56bc
000001d0: dbb1 abbd bdd3 59bd 0b07 d3bd aae4 7abd
000001e0: d063 643d 2415 443d 9f09 9f3b dc01 ffbc
000001f0: b54d 13bc e8ed cd3c 60f2 223d f11a 863b
00000200: 0e32 363d a297 8abd 7ff3 99bd 17c6 cfbb
00000210: 0d0f 893d f73d 06bc 26da a2bd 6f7c 8fbd
00000220: cac6 9cbd c3ee 2abc d4ff 2a3d 847c 02bd
00000230: 8344 d1bd 182f b9bc 8778 8b3c 66b9 8b3d
00000240: c23e c5bb f960 873d 9105 9f3d 9110 4dbd
00000250: 6b9e c6bd dca4 883b 9685 d5bc cfdb 7bbd
00000260: 730d c9bc 7098 bbbd 5e87 98bd 365c 923d
00000270: 6b52 1abd 4a1f f3bd 73a8 1cbe 3803 afbb
00000280: 8700 2cbd 2638 953d a257 c53c 13f2 363d
00000290: 8353 d83d f862 c6bd f4b0 643d 6c04 543d
000002a0: e406 a7bd 9d19 093d 5210 08bd cec2 1a3d
000002b0: 58e3 593d 860e c9bc 2df4 34bd 890b 9fbc
000002c0: 0274 58bd c2cc 343d d954 323c be56 d83c
000002d0: 378a 16be bde2 55bd 2330 06bd d266 c4bd
000002e0: 087f 88bd 901b 16bd cad9 bfbd 07fe fcbd
000002f0: 3d65 eabd c63e cdbd f310 f93a deb0 1cbd
00000300: 7168 733c 013c b639 f14c 02bd 38a7 0bbd
00000310: d0b7 883c bec9 39bd cc1b 243d 890c 673c
00000320: ec0f ad3c 816e 323c e49a 5f3d 061e a63c
00000330: 538c d6bc 0914 373d 9f5a 62bc a159 71bc
00000340: 5d32 d3bc 9622 1c3c c355 57bd 5d7d 08bd
00000350: 34cf b0bb 4303 9fbd 80a9 58bc a57b acbc
00000360: b29c a1bc ecd3 1d3d 912b a33d fc68 19bd
00000370: c9a8 223b 7de1 b03d 5ec3 783d d7b5 c13c
00000380: 0f92 49bd c6d4 cabd 1a6e 963c ee61 853d
00000390: 7a34 1b3d cc9a 2fbd f207 61bc ac56 713d
000003a0: fd80 75bc 0745 4a3d c079 9fbd eaaf bbbd
000003b0: e5f5 fdbc 92b8 0c3e f216 b73c 47af 123c
000003c0: 1720 243c 087b b93d eb18 283d d23d 91bb
000003d0: 83f7 6d3b f955 01bd 7484 84bc 9492 bfbc
000003e0: 87a4 8f3c afab a03c c562 f03c 9396 5fbd
000003f0: c207 0fbd d1d1 b5bd a1b9 573d 25e9 4c3d
-0.073747225 0.066547066 0.015960002 0.0058336826 -0.09637825 -0.077774435 0.0074950615 0.1371344
0.008824203 -0.08549171 0.005443932 0.157886 -0.075648986 -0.039266955 -0.024455817 0.021173373
0.04052378 -0.02315545 0.016201345 -0.07889992 -0.079006314 -0.0017315398 -0.043198403 0.0061660158
-0.10016236 -0.03913673 -0.044633668 0.03329034 -0.023585944 0.006432008 0.0572773 -0.06937544
0.01104514 -0.013460445 -0.024834437 0.059506398 -0.044834405 -0.06536382 0.0020586858 -0.05514748
0.023950046 -0.052317515 -0.026616924 -0.031117642 0.0035106584 0.01861591 -0.101485975 -0.10064152
0.11984892 0.21860261 0.08025199 0.007470768 0.01306812 0.042934954 -0.0498057 -0.055385273
-0.048048932 0.037181355 -0.0039466983 -0.035042547 0.016765345 0.05859701 0.030032566 -0.07060934
-0.005963136 0.018161818 -0.015779516 0.06858944 0.042606924 0.047657426 0.019709084 0.031005373
-0.03999 -0.039664898 -0.021603066 -0.05904893 0.016332585 -0.0010698035 0.028837217 0.06419794
0.003356383 -0.07374355 -0.064409934 -0.02862979 0.044072494 0.047070142 -0.06629792 -0.008753919
0.018044326 0.07424375 0.018338917 0.040114976 -0.03781399 -0.0076401033 -0.04105598 -0.057099525
-0.0036114256 -0.036724202 0.022516048 0.017258458 -0.10077054 -0.104255386 -0.06798657 -0.013449281
-0.11931055 -0.022311078 -0.09992075 -0.097011685 0.050306335 -0.0524868 -0.10806438 -0.048638616
-0.03512339 -0.012121496 -0.025035113 -0.013070106 -0.083835326 -0.053180445 -0.10304078 -0.061253227
0.05575925 0.047871724 0.004853442 -0.031128816 -0.008990695 0.025137857 0.039781928 0.004092567
0.04448133 -0.06767203 -0.07517146 -0.006340753 0.06692324 -0.0081934845 -0.07951765 -0.07006156
-0.076551035 -0.010432902 0.041747883 -0.03185703 -0.10218146 -0.022605464 0.017025245 0.06822471
-0.006019444 0.06610293 0.077647336 -0.050064627 -0.096981846 0.0041700434 -0.026064675 -0.061488923
-0.024542546 -0.091599345 -0.07447694 0.07146494 -0.037676256 -0.11871202 -0.15298633 -0.00534096
-0.04199269 0.072861 0.024089638 0.044664454 0.105628036 -0.096868455 0.05583282 0.05176203
-0.08155611 0.033471692 -0.03321869 0.037783436 0.053195328 -0.024543058 -0.044178177 -0.01941468
-0.05284501 0.044140585 0.010884487 0.02640855 -0.14701162 -0.052218188 -0.03276075 -0.09589924
-0.06664854 -0.03664738 -0.09367712 -0.12353139 -0.11445091 -0.10021739 0.0019002244 -0.03825461
0.014856444 0.00034758452 -0.03181166 -0.03409502 0.016689211 -0.045358412 0.04006557 0.01410211
0.021125756 0.010890604 0.054591075 0.020277988 -0.026189959 0.04469684 -0.013815551 -0.014730842
-0.025780851 0.00952973 -0.052572023 -0.03332268 -0.0053957943 -0.07764294 -0.013224006 -0.021055052
-0.019728038 0.038532183 0.07967294 -0.037453637 0.0024819842 0.086367585 0.06073319 0.023646278
-0.049211558 -0.099038646 0.018363047 0.06512819 0.037891842 -0.042872235 -0.0137348045 0.058920547
-0.0149843665 0.049382236 -0.07786894 -0.09164412 -0.03100104 0.13742283 0.022349808 0.008952922
0.010017416 0.090566695 0.04103939 -0.0044324184 0.0036310859 -0.03157613 -0.01617644 -0.023385324
0.017534507 0.019613115 0.029343972 -0.05458696 -0.034919508 -0.0887791 0.052667264 0.05002703

bias f4 [64]
00000000: e379 6fbd c2d4 9bbb ff30 a43c 4527 e5bc
00000010: 5c29 90bd c0b4 dcbc 7d78 ecbd f34c 71be
00000020: 7e02 83bd 9126 63be 116e 2dbd bfc1 2cbd
00000030: 1ef5 afbb 8541 93bd 8b46 c8bd eb1a 88bd
00000040: 57d3 c3bd 3962 2fbd c146 96bd dad1 4cbd
00000050: d4e9 a2bd f1e0 21bd 6637 49bb a76d 2bbd
00000060: 1ab4 98bd 51a4 34bd 2877 a5bd 380b 4abd
00000070: 92aa 26be 20a6 a3bc d72a f9bc 6a31 f5bd
00000080: c927 f1bd 7bb9 8bbe 6c1f 27bd 25d4 fcbc
00000090: b499 c2bd 5ccf 8dbc 95a3 0dbd b730 35bd
000000a0: a0db 6cbc 61f7 84bd 4606 5bbe 2e3b 2ebd
000000b0: 6b30 41bd 10a5 9bbd 217a fd3c e999 00bc
000000c0: 0c34 40bc c75c 18be a020 ebbc 0fbf 8c3c
000000d0: 9774 85bd 0d0a 42be 2528 abbd 0711 e2bc
000000e0: 9b1b 4dbd a423 64be 9b39 0fbd c8e6 08bd
000000f0: 70b8 07bc 25a5 54be 86c1 8ebd df3d 1dbd
-0.05846585 -0.0047555873 0.020042894 -0.027972827 -0.07039139 -0.026941657 -0.11546419 -0.2356451
-0.0639696 -0.2218268 -0.042341296 -0.04217696 -0.0053697964 -0.07190231 -0.0977908 -0.06645759
-0.09561794 -0.04281828 -0.07337714 -0.050004818 -0.079547554 -0.03952116 -0.0030703186 -0.04185262
-0.07456227 -0.044102017 -0.08079368 -0.049327105 -0.16276005 -0.019976676 -0.030415935 -0.119723156
-0.117751665 -0.27289948 -0.04080145 -0.030862877 -0.09501973 -0.01731079 -0.034579832 -0.04423591
-0.01445666 -0.06492496 -0.21389112 -0.042536907 -0.047165316 -0.075998425 0.030942025 -0.007849195
-0.011731159 -0.14879142 -0.02870208 0.017180948 -0.065163784 -0.18949147 -0.08357266 -0.02759601
-0.050075155 -0.22279221 -0.034967046 -0.033423215 -0.008283719 -0.20766123 -0.069705054 -0.038389083

weight f4 [128, 1600]
00000000: 4933 b7bc 4000 e23b 4b6e 743d 6819 a23c
00000010: 01e1 103d 80dd 1c3c 1a47 bcbc 41e8 b4bc
00000020: 4232 a33a b853 8b3c ac61 9abc 44f0 8dbc
00000030: 37b1 943a 8ca5 db3c 2105 fd3c 8276 fd3b
00000040: 5aae 1c3d e9be 263d 6c72 5d3c 9515 d43c
00000050: 1f85 eabb 37ff 863b 4cda 703c b11e 20bb
00000060: b1bd 7e3b 609a 88bc b2bb 153a f991 653b
00000070: a1a8 a33c bc46 c7bc 7e3e c2bc 2ab5 c1bb
00000080: 7f78 2e3c 96e2 ce3c 6e2a f339 00eb 15bc
00000090: f38b cfbc e5f5 4e3d ad85 253d a189 113d
000000a0: 877e 09bd 1559 31bb 20e3 9b3c 4e82 0cbc
000000b0: 1688 453b ca49 f43b 521e f13a 793b 1e3d
000000c0: 422c 3f3c 979e 22bd a582 bdbb 2f9e 10bb
000000d0: 4f42 d13c 2624 8cbc 34d4 a4bb 3671 8bbc
000000e0: 1042 44bc c03c 543c 2f17 b9bb 2525 d5bb
000000f0: c2d2 8cbc 4de0 52ba 18a2 a43b 750a 653c
00000100: 6dc8 80bc d34d 81bc 89ce 943b 6c10 7abc
00000110: 2f11 c73c a2d9 43bc 8be8 a53c ca77 a2bc
00000120: 1ca7 ed3b aa46 333c 1b70 52bc af12 98bc
00000130: ba21 d6bc 85eb e6bc d424 99bd 3245 453a
00000140: 9106 e23c 8569 56bc 4d77 873c 6fd5 61bd
00000150: 7bd3 a1bb fcdd 173c c342 f23c c0ff 5b3d
00000160: 9fa9 623c 23c0 afbb b49f 913b 2fb1 73bd
00000170: 2321 2a3b 7631 513c 74d9 953b 1ec0 bb3c
00000180: a57d 11bd 5a4b cabb 36be 03bd 66f7 793c
00000190: e402 bc3c c7d8 083d c9cb 5d3d ec86 363d
000001a0: b1d2 3d3c 48c4 9abc aefe 92bb e197 573d
000001b0: c687 4d3d 0c03 9bba b9f1 9d3b 4bfb 6fbc
000001c0: 4152 eebc 71d7 373c 579c 123b 72b9 36bc
000001d0: ad1b efbb a823 6abc ff40 993c 6a1e f73a
000001e0: 85fc 9e3c c596 ad3d 73b3 c93c ce7c a33b
000001f0: e607 19bd c2e2 00bc 2d6e 233b 281b 253d
00000200: 63c2 cd3c 4b5a d8bc 324a f1bc ea0e ba3b
00000210: 7425 f23c fb11 b6bb c421 86bb e358 ddbc
00000220: d0c6 923c 77a0 ab3d 3d87 123d de8a fe3c
00000230: 6937 fcbc 3199 1c3d 6e6d 613c cb47 13bb
00000240: ce06 e2bb 39f1 29bc 74c8 0a3d 7e60 06bd
00000250: f6b5 8a3c 12b4 9ebc e3b3 82bc 5083 f4ba
00000260: 3726 ecbc 528b 7f3c 57ae 983c ad04 9d3c
00000270: e3d7 403b 13f0 183d 7225 d83a 36b7 a83b
00000280: 99c9 91bb 3b4e 2b3d 0242 6f3b f741 0d3c
00000290: 4497 4ebc 5851 50bc 98ee bcbc a2d9 07bc
000002a0: 6b2b 1cbd 7196 9ebb 3696 283b 0a14 c3bc
000002b0: b267 d636 f485 073c 80ef 4fbc b70d 813a
000002c0: 7bac 9a3c 5f7d 4a3d 46d1 f13d a64b 92bb
000002d0: 1659 053b fd5b 413d f438 543d 8398 f73b
000002e0: 456c 003c 68d5 01bb b808 09bd c588 8cbc
000002f0: ce28 1bbd 31e7 063c ffef e8bc f80f d9bb
00000300: a845 8dbc e6cf 5abc ba86 1d3d e3d3 0bbc
00000310: 4b55 1f3c 363d a8bd 8525 eb3b 6842 5ebc
00000320: 906d 193c a385 b2bc 39fc ec3c 3d64 ff3b
00000330: 5bf9 703c faa5 dfba 23f5 7d3c cc7c 34bd
00000340: bbd9 1fbd eefb b1bc ff0c c9ba a128 83bc
00000350: da3b 0a3c 5da1 cabb 635d c63c 2c1f 263c
00000360: a63d 2a3d de1c 463d a01f cd3c 7ff9 e7bc
00000370: e26d a73c 2d5d 4d3d 6993 bd3c 5db1 2d3c
00000380: e483 6dbc 7159 04bd fe26 663d a8be 473d
00000390: f4ef 9e3d 818d c13c d66a d6bc 109f 813c
000003a0: af75 28bd ac05 3d3d 3472 3c3d 807f 99bc
000003b0: 51f7 90bd ee4a 07bd e30d 0d3d bf27 88bc
000003c0: 978b 623c 4610 e3bc efb6 5d3d c399 133c
000003d0: 0168 abbd 7d03 263c 39c1 cabb b7d1 48bd
000003e0: b657 0cbd c737 01bd d330 55bc e419 1cbc
000003f0: 79fa 0ebd fcde 75bc cb34 b63b 61d1 c63b
-0.022363322 0.0068970025 0.059675496 0.019787505 0.03537083 0.009574294 -0.022983123 -0.022083404
0.0012450891 0.017007694 -0.018845402 -0.017326482 0.0011344318 0.026812337 0.030886235 0.0077350745
0.038252212 0.04070941 0.01351605 0.025889197 -0.0071569826 0.0041197794 0.0147004835 -0.0024432356
0.003887039 -0.016675174 0.00057118677 0.0035029633 0.01997787 -0.024325721 -0.02371144 -0.005911489
0.010648846 0.025254529 0.00046380184 -0.009150267 -0.025335288 0.050527472 0.040410686 0.035531644
-0.03356793 -0.0027061154 0.0190292 -0.008575989 0.0030140928 0.0074550854 0.0018395877 0.038630936
0.011668267 -0.039702024 -0.0057833963 -0.002206694 0.025544314 -0.01710708 -0.0050301794 -0.017021757
-0.011978641 0.012953937 -0.0056485157 -0.006504672 -0.01719034 -0.00080442877 0.005024206 0.013979544
-0.01572057 -0.01578418 0.0045412225 -0.015262704 0.024300186 -0.011953743 0.020252487 -0.01983251
0.007252587 0.010942141 -0.012844111 -0.018563597 -0.026139129 -0.028188476 -0.074777275 0.00075252645
0.027591022 -0.013086681 0.01653638 -0.055135187 -0.0049385405 0.009269234 0.02957285 0.0537107
0.013834386 -0.0053634807 0.004444087 -0.059495147 0.0025959692 0.01276814 0.0045730416 0.022918757
-0.035520215 -0.0061735334 -0.03216382 0.015256738 0.022950597 0.03340986 0.054149423 0.044562265
0.011585877 -0.018892422 -0.0044859266 0.052635077 0.05017831 -0.001182647 0.0048200754 -0.014647315
-0.029091956 0.011220799 0.0022371018 -0.011152612 -0.0072970004 -0.014290728 0.01870775 0.0018853669
0.01940752 0.08476023 0.0246217 0.004989243 -0.03736105 -0.007866563 0.0024937496 0.0403091
0.025117105 -0.026410243 -0.029454324 0.0056780474 0.029558875 -0.0055563427 -0.0040933806 -0.027019924
0.017917067 0.083802156 0.035773505 0.031072076 -0.03078814 0.038232032 0.013759 -0.0022473212
-0.006897784 -0.010372453 0.033882573 -0.032806866 0.016932469 -0.019372974 -0.015954917 -0.0018654857
-0.028826816 0.015597181 0.01863782 0.019167269 0.0029425554 0.037338328 0.0016490652 0.0051487936
-0.004449081 0.041822653 0.003650785 0.008621684 -0.012609307 -0.012714706 -0.02306299 -0.008291634
-0.038127344 -0.0048397114 0.0025724298 -0.023813266 6.3897687e-06 0.008271683 -0.012691379 0.0009846006
0.018881073 0.04943597 0.11807494 -0.0044645844 0.0020347289 0.047206867 0.051812127 0.0075560226
0.0078383135 -0.0019811038 -0.03345558 -0.01715506 -0.03788071 0.008233831 -0.028434752 -0.006624218
-0.017245129 -0.013355231 0.038458563 -0.008534404 0.009724925 -0.082148 0.0071761035 -0.013565637
0.009364501 -0.021792239 0.028928863 0.0077939318 0.0147078885 -0.0017063015 0.01550034 -0.044064328
-0.039026003 -0.021726575 -0.0015338956 -0.016010584 0.008437121 -0.006183787 0.024214452 0.010139268
0.0415627 0.048367374 0.025039494 -0.028317211 0.020438138 0.050137687 0.02314158 0.010601369
-0.014496777 -0.03231186 0.05618953 0.04876581 0.07760611 0.023627045 -0.02617399 0.015822917
-0.041127857 0.046147987 0.04600735 -0.018737555 -0.07078422 -0.033030443 0.03443707 -0.016620515
0.013827226 -0.02771772 0.054129537 0.009008828 -0.083694465 0.010132668 -0.0061875847 -0.049028125
-0.034263335 -0.031547334 -0.013012129 -0.009527657 -0.034906838 -0.015006777 0.0055604926 0.0060674404

bias f4 [128]
00000000: fa9e 56bd c696 073d 4433 c0bc c616 51bc
00000010: 1b23 99bc be67 44bd ff93 663c 3ead 52bd
00000020: 2fb0 933c 2515 873d 6ad8 c0bc baf9 1e3c
00000030: fda6 2b3d 985f 113c 9e2e 4bbd fb2f 8ebd
00000040: 7ffe 8cbd 3065 0abb a25a a0bd 117e b5bc
00000050: e779 dfbc a4da 123d fcd5 763c d2fe 4dbd
00000060: b9e0 47bc 272b 5a3c c67b 043d 8aa1 943c
00000070: 6c49 7fbd 3b71 503d 267b a13c 0e8c 703d
00000080: 4881 f7bb 18f5 64bd c752 38bd ae00 8abd
00000090: 743c 433d 53e8 073d a076 5d3d c888 b33c
000000a0: 2dbd d93c ab26 19bd 77b4 393c ac55 983d
000000b0: 6e5a 443c 57a1 52bc 7697 c03b a508 ff3c
000000c0: 281e 793d c25f dc3c 982d 87bb ce1a e8bc
000000d0: d149 85bd df37 243d bc93 843d 6f08 2b3c
000000e0: 7002 d33a 965c 4abd 04e4 773b 7161 d83c
000000f0: 16fc b23d c0a2 883b 5e57 4e3c d6e8 8abc
00000100: 7e7c c6bc db70 66bd b0e1 8ebc 4e65 58bb
00000110: d405 6abd b6a3 193d d5a6 5c3d ec24 3bbd
00000120: f2c6 a1bd 6bf4 1e3d a802 06bd 855a 78bd
00000130: 808e 2f3d b71c c7bc 823f 53bd b4d5 043d
00000140: 823e 113d 5fe6 0ebd 2885 e23c 8b8b f83c
00000150: d75f f83c 228d 033d 1c2f ea3c 1379 173d
00000160: cd1e 9db8 3038 b6bb d9ed 603d d9d4 213d
00000170: af3a dabc 8a3d 16bd 25ff 863c 259e 92bb
00000180: 0764 d63c ce79 193d 0c28 283c 6644 d23c
00000190: c370 63bd 31c3 71bd a462 35bc 982e 873d
000001a0: 8e7a 50bb b51b cc3c 9df3 9439 0fed 413d
000001b0: 32f3 e2bc 8d57 493d df33 213d 6ec1 ba3c
000001c0: b8cc f53c d2b0 9fbc e3db 3f3c 4357 203d
000001d0: 95b4 98bd d9e4 053d 0901 fcba 8275 25bd
000001e0: cc36 43bd 1b96 2c3d ac25 973a 8f7d 39bd
000001f0: 5764 80bd b7e0 60bb 00c7 ddba 8e98 ce3c
-0.052397706 0.033102773 -0.023461945 -0.012761777 -0.018693497 -0.0479505 0.014073371 -0.051434748
0.018028347 0.0659583 -0.023540694 0.009703094 0.0419073 0.008872889 -0.049605004 -0.06942745
-0.06884479 -0.0021117441 -0.07829787 -0.02215484 -0.027279807 0.035853043 0.015065666 -0.050291844
-0.012199574 0.013315952 0.032344602 0.018143434 -0.06232588 0.050889235 0.019712042 0.058727317
-0.0075532533 -0.055897802 -0.045000818 -0.06738411 0.047665074 0.033180546 0.054068208 0.021915808
0.026579464 -0.037390392 0.01133453 0.074382156 0.011984451 -0.012855849 0.0058774306 0.031132052
0.060819775 0.02690113 -0.0041253082 -0.028333094 -0.0650822 0.040092345 0.064734906 0.010439022
0.0016098749 -0.049404703 0.0037825117 0.026413651 0.08739488 0.004169792 0.012594072 -0.016956728
-0.024229284 -0.05625997 -0.0174416 -0.0033019367 -0.057134464 0.037509643 0.05387004 -0.04568951
-0.07899274 0.038807314 -0.032717377 -0.0606332 0.042860508 -0.024305684 -0.051574238 0.032430366
0.035460003 -0.034887668 0.027651384 0.030339977 0.030319137 0.032117017 0.028586917 0.0369807
-7.4920805e-05 -0.0055608973 0.05491433 0.039509628 -0.02663931 -0.036679782 0.016479084 -0.0044744187
0.026170744 0.037469678 0.010263454 0.02566738 -0.05552746 -0.05902404 -0.011070881 0.06600684
-0.003181133 0.024915555 0.00028410266 0.047345217 -0.027703855 0.04915576 0.03935611 0.022797313
0.030004844 -0.019493494 0.01171014 0.03914572 -0.07456318 0.03268895 -0.0019226383 -0.040395267
-0.04765968 0.04213534 0.0011531613 -0.045285758 -0.06269138 -0.0034313628 -0.0016920269 0.025219228

weight f4 [10, 128]
00000000: bef6 1e3e c747 98be f2af b7bd 97e8 62be
00000010: 913d 7dbe 85e4 86be 04b5 bebd a86f e3be
00000020: c54b 4cbe 5e2e 0b3e 13ff 77be 1bfc f2bd
00000030: 5186 3abe 33cd 34be 2feb 2a3e c16d 71be
00000040: 4120 fdbd 442f 893d 9679 f5bd 6119 37be
00000050: 8ade 70be 0cdc 543d 6ac6 073e 0e11 52bd
00000060: 2063 903e e3a6 8dbe 7e46 61be 6aed 8cbe
00000070: 4ba4 3abe b76f a73b 0358 89bb 926a a9bd
00000080: ccac 61be 2997 383e 78a0 c9bd 55f0 50be
00000090: 3f43 d93d cc26 11be 4b87 f4bd bf18 54be
000000a0: 872a 23be 1934 6a3e 57d9 123b 7758 03bd
000000b0: b464 ff3d 25f3 253e 59a5 a83d a22e a1be
000000c0: 3394 34be 9494 4fbd af41 81bd ef9c 1cbe
000000d0: ae2c 66be 8d5d 9a3e a85f a13e 015d 2ebe
000000e0: b9ad 75be 5efb 44be e09e 873e dce7 a9be
000000f0: 9c6a 2f3e e230 84be 141b 42be 220a 3dbe
00000100: d113 82be 4f7a 56bd d378 943c e3f0 3fbe
00000110: 5244 52be cc73 d5bc da92 75be 3841 0d3e
00000120: ae1d ec3d 3555 973d 3cca 03be 0e75 133d
00000130: b7ea 8b3d e5ca 0fbe e7e7 2b3e 7017 29be
00000140: a656 5b3e d41f a0be 530b 01be c894 60be
00000150: 2be2 933e 9792 adbd abc5 943d 8853 773d
00000160: dd4e 7e3e 2559 29be a931 4d3e 2e8c bb3c
00000170: d420 9ebe 1e28 37be 1e40 863e 1d5c 3f3e
00000180: f74e 4d3e ef10 343e 62ac 4cbe ca15 1dbd
00000190: 524f 70be a65a 1ebe fbb1 5e3e e5aa 673e
000001a0: a29f d63d 3b3f 213e 8452 babd 8ad6 15be
000001b0: 3560 49be d821 32be 00af 98be 607d 1dbe
000001c0: 5e43 823d 9f8a 0b3e 5a0e 63bd 6d65 c7bd
000001d0: 6d3b 4cbe 6fac 963d 04f0 143e f591 69be
000001e0: ed61 cdbd 3f26 3f3e 11bd 5c3e 4d80 143e
000001f0: 50c2 3e3e f120 603d aa41 8ebe f5fa 8e3d
00000200: e6d8 6bbe bba4 1b3e 461a 423b d13d 6ebe
00000210: 90d3 593e 5f7e fdbd 439a 1b3e ec70 84bd
00000220: aa44 a03e 3a07 543e c876 79bd ee35 113e
00000230: d218 4a3e e566 073e 7246 5abe 330d 1dbe
00000240: 87fc 52be e8c3 273d ea23 14be 320a 823e
00000250: e5a9 023d 27ae 103d 4324 a8bc 60f6 39be
00000260: 7d42 a1bd 1d00 523e b531 1f3e a718 4c3e
00000270: 4da5 0bbe 6959 283e 6a5f 3cbd 426b af3e
00000280: 9e42 503e f4bc 64be e23e 6ebe 8990 86be
00000290: cb83 c73d 6ab4 303e 2d3b 983e 590a 5b3e
000002a0: 6843 6b3e 7f36 e4bd 1191 003e bef0 773e
000002b0: 2c8c 0fbd 8d15 91be fd58 f1bd 296e 673e
000002c0: ffc8 b73e b6e3 563e 4dcb 5e3d 30e1 49be
000002d0: 1080 93be 3bb1 a23d 05af 723e cbe7 053e
000002e0: 443f a53e 06e9 7fbe 7fc1 3dbe 40f5 003e
000002f0: d20b 8b3e 244d 4b3e c30a 863e 74a4 2dbd
00000300: 991c 313d 81ea 10be b5d9 023e 9b36 063e
00000310: bc76 0f3d 5bad 6d3e 4a3e 543e 589e 61be
00000320: 7753 a5be 7f45 3e3e 1f14 0cbb 91f6 9bbe
00000330: 2860 1f3e 99cb 31be 3757 98be c755 423e
00000340: 8258 b03e ceda d13c 68a7 b83d 7640 503e
00000350: 8d28 dcbd 1885 f13d 0339 413e 9eb9 88bd
00000360: 53a1 24be 642b 993e 72bf 233e 7e23 563d
00000370: 7903 52be 8aa2 1ebe c0f4 cd3c 7612 aebe
00000380: 8bd4 65be cb83 603e 0831 b63e 6fcf 6f3e
00000390: c04d 89be 7c39 e9bc e214 10be b565 0e3c
000003a0: 05fd 60bc d8c6 dd3a 324c a0bd 8e58 603e
000003b0: 6186 323e 3209 803e 150e 7a3e 7f62 d73d
000003c0: 54a8 993e 4c82 18be 3e84 d03d f8ea 2d3e
000003d0: 112f 52be 9dc3 b23d 9aeb de3d ba7e 57be
000003e0: c98c 33be 7651 423e 2054 57be ad45 0fbe
000003f0: c460 4ebe eeb3 0a3e eca5 163e c8b1 cb3c
0.15523812 -0.29742262 -0.08969106 -0.22159038 -0.24730517 -0.26346222 -0.0931187 -0.44421124
-0.19950779 0.13591906 -0.24218397 -0.118644916 -0.182153 -0.17656402 0.16691278 -0.23577024
-0.123596676 0.06698468 -0.11986081 -0.17880775 -0.23522392 0.051967666 0.13259283 -0.051285796
0.28200626 -0.27666387 -0.21999547 -0.27524883 -0.18226735 0.005109753 -0.0041914 -0.0827228
-0.22038573 0.18026413 -0.0984506 -0.2040418 0.10608529 -0.14174956 -0.119398676 -0.20712565
-0.15934192 0.22871436 0.0022407377 -0.03206679 0.124703795 0.16206034 0.082346626 -0.3148089
-0.17634659 -0.050678805 -0.06311356 -0.1529424 -0.22477981 0.301495 0.31518292 -0.17027666
-0.23992051 -0.19236514 0.264884 -0.33184707 0.17130512 -0.25818545 -0.18955642 -0.18460897
-0.25405744 -0.052362736 0.01812402 -0.18744235 -0.20533875 -0.026056193 -0.239818 0.1379441
0.115290985 0.07389299 -0.12870115 0.036000304 0.06831878 -0.14042242 0.16787682 -0.16512847
0.21419773 -0.31274283 -0.12601976 -0.21931756 0.2888349 -0.084752254 0.07264265 0.060382396
0.24834771 -0.16537912 0.20038475 0.022893991 -0.3088442 -0.17886397 0.26220793 0.18687482
0.20049654 0.17584585 -0.19987634 -0.038350858 -0.23467758 -0.15464267 0.21747582 0.22623785
0.10479666 0.15746777 -0.0909777 -0.14632621 -0.19665606 -0.17395723 -0.29821014 -0.15379858
0.063605055 0.13627099 -0.05543361 -0.09736142 -0.19944544 0.07357108 0.14544684 -0.22809584
-0.100284435 0.18666933 0.21556498 0.14502068 0.18628812 0.054718915 -0.27784473 0.0698146
-0.23031959 0.15199558 0.002961771 -0.23265769 0.21272111 -0.12377619 0.15195565 -0.06466851
0.31302387 0.20705882 -0.060904294 0.14180729 0.1973603 0.13222845 -0.21315935 -0.15337066
-0.20604144 0.040958315 -0.14466825 0.25398403 0.031900305 0.035322335 -0.020525103 -0.18160391
-0.0787401 0.20507856 0.15546305 0.19931279 -0.13637276 0.16440357 -0.04598943 0.3426152
0.20337912 -0.22337705 -0.23266175 -0.26282147 0.097419344 0.17256323 0.29732648 0.21390666
0.22974932 -0.11143207 0.12555338 0.2421293 -0.035045788 -0.28336754 -0.11784551 0.22600617
0.35895535 0.20985302 0.0543931 -0.19714808 -0.2880864 0.0794396 0.23699577 0.13076703
0.3227483 -0.24991235 -0.18530844 0.12593555 0.27157456 0.19853646 0.26180086 -0.042393163
0.043240163 -0.14151956 0.12778361 0.13106768 0.035025343 0.23210661 0.20726886 -0.2203306
-0.3229024 0.18581198 -0.0021374298 -0.30461553 0.15564024 -0.17362823 -0.2975404 0.18978034
0.34442526 0.02561703 0.09016305 0.2033709 -0.10749922 0.11792964 0.18869404 -0.06676029
-0.16077165 0.29915917 0.15991 0.05227994 -0.20509137 -0.15491691 0.02514112 -0.3399846
-0.2244436 0.21925275 0.35584283 0.23418973 -0.2681713 -0.028469793 -0.14070466 0.008691241
-0.0137322 0.0016920222 -0.07827033 0.21908781 0.17434074 0.25007015 0.24419434 0.105168335
0.30011237 -0.14893454 0.10181473 0.16984165 -0.20525767 0.087287165 0.10884781 -0.21044436
-0.17534174 0.18976387 -0.21028185 -0.13991423 -0.201541 0.135452 0.14711732 0.024865046

bias f4 [10]
00000000: 676a 29bd 705f 4e3e 632c 113d 07f6 a7bd
00000010: 1ccd 04be f4f8 2abd 1528 53be 38bb 4e3c
00000020: f0be 1c3e e598 fa3b
-0.04136124 0.20153594 0.03544272 -0.08201223 -0.12968868 -0.041741326 -0.20620759 0.012617879
0.15307212 0.007647621
